…
,"userId":"03832949950970875412"}}},"source":["# Define network\n","G_100 = generator()\n","D_100 = discriminator()\n","G_100.weight_init(mean=0.0, std=0.02)\n","D_100.weight_init(mean=0.0, std=0.02)\n","G_100.cuda()\n","D_100.cuda()\n","G_100.train()\n","D_100.train()\n","\n","#Report the architectures of your network\n","print(G_100)\n","print('Number of trainable parameters {}'.format(count_params(G_100)))\n","\n","print(D_100)\n","print('Number of trainable parameters {}'.format(count_params(D_100)))"],"execution_count":76,"outputs":[{"output_type":"stream","text":["generator(\n","  (conv1): Conv2d(3, 64, kernel_size=(4, 4), stride=(2, 2), padding=(1, 1))\n","  (conv2): Conv2d(64, 128, kernel_size=(4, 4), stride=(2, 2), padding=(1, 1))\n","  (conv2_bn): BatchNorm2d(128, eps=1e-05, momentum=0.1, affine=True, track_running_stats=True)\n","  (conv3): Conv2d(128, 256, kernel_size=(4, 4), stride=(2, 2), padding=(1, 1))\n","  (conv3_bn): BatchNorm2d(256, eps=1e-05, momentum=0.1, affine=True, track_running_stats=True)\n","  (conv4): Conv2d(256, 512, kernel_size=(4, 4), stride=(2, 2), padding=(1, 1))\n","  (conv4_bn): BatchNorm2d(512, eps=1e-05, momentum=0.1, affine=True, track_running_stats=True)\n","  (conv5): Conv2d(512, 512, kernel_size=(4, 4), stride=(2, 2), padding=(1, 1))\n","  (conv5_bn): BatchNorm2d(512, eps=1e-05, momentum=0.1, affine=True, track_running_stats=True)\n","  (conv6): Conv2d(512, 512, kernel_size=(4, 4), stride=(2, 2), padding=(1, 1))\n","  (conv6_bn): BatchNorm2d(512, eps=1e-05, momentum=0.1, affine=True, track_running_stats=True)\n","  (conv7): Conv2d(512, 512, kernel_size=(4, 4), stride=(2, 2), padding=(1, 1))\n","  (conv7_bn): BatchNorm2d(512, eps=1e-05, momentum=0.1, affine=True, track_running_stats=True)\n","  (conv8): Conv2d(512, 512, kernel_size=(4, 4), stride=(2, 2), padding=(1, 1))\n","  (deconv1): ConvTranspose2d(512, 512, kernel_size=(4, 4), stride=(2, 2), padding=(1, 1))\n","  (deconv1_bn): BatchNorm2d(512, eps=1e-05, momentum=0.1, affine=True, track_running_stats=True)\n","  (deconv2): ConvTranspose2d(1024, 512, kernel_size=(4, 4), stride=(2, 2), padding=(1, 1))\n","  (deconv2_bn): BatchNorm2d(512, eps=1e-05, momentum=0.1, affine=True, track_running_stats=True)\n","  (deconv3): ConvTranspose2d(1024, 512, kernel_size=(4, 4), stride=(2, 2), padding=(1, 1))\n","  (deconv3_bn): BatchNorm2d(512, eps=1e-05, momentum=0.1, affine=True, track_running_stats=True)\n","  (deconv4): ConvTranspose2d(1024, 512, kernel_size=(4, 4), stride=(2, 2), padding=(1, 1))\n","  (deconv4_bn): BatchNorm2d(512, eps=1e-05, momentum=0.1, affine=True, track_running_stats=True)\n","  (deconv5): ConvTranspose2d(1024, 256, kernel_size=(4, 4), stride=(2, 2), padding=(1, 1))\n","  (deconv5_bn): BatchNorm2d(256, eps=1e-05, momentum=0.1, affine=True, track_running_stats=True)\n","  (deconv6): ConvTranspose2d(512, 128, kernel_size=(4, 4), stride=(2, 2), padding=(1, 1))\n","  (deconv6_bn): BatchNorm2d(128, eps=1e-05, momentum=0.1, affine=True, track_running_stats=True)\n","  (deconv7): ConvTranspose2d(256, 64, kernel_size=(4, 4), stride=(2, 2), padding=(1, 1))\n","  (deconv7_bn): BatchNorm2d(64, eps=1e-05, momentum=0.1, affine=True, track_running_stats=True)\n","  (deconv8): ConvTranspose2d(128, 3, kernel_size=(4, 4), stride=(2, 2), padding=(1, 1))\n",")\n","Number of trainable parameters 54419459\n","discriminator(\n","  (conv1): Conv2d(6, 64, kernel_size=(4, 4), stride=(2, 2), padding=(1, 1))\n","  (conv2): Conv2d(64, 128, kernel_size=(4, 4), stride=(2, 2), padding=(1, 1))\n","  (conv2_bn): BatchNorm2d(128, eps=1e-05, momentum=0.1, affine=True, track_running_stats=True)\n","  (conv3): Conv2d(128, 256, kernel_size=(4, 4), stride=(2, 2), padding=(1, 1))\n","  (conv3_bn): BatchNorm2d(256, eps=1e-05, momentum=0.1, affine=True, track_running_stats=True)\n","  (conv4): Conv2d(256, 512, kernel_size=(4, 4), stride=(1, 1), padding=(1, 1))\n","  (conv4_bn): BatchNorm2d(512, eps=1e-05, momentum=0.1, affine=True, track_running_stats=True)\n","  (conv5): Conv2d(512, 1, kernel_size=(4, 4), stride=(1, 1), padding=(1, 1))\n",")\n","Number of trainable parameters 2769601\n"],"name":"stdout"}]},{"cell_type":"code","metadata":{"id":"vwF9wX7GKPc5","colab_type":"code","colab":{"base_uri":"https://localhost:8080/","height":1000,"output_embedded_package_id":"1sLCGWG97D0Nlj-qNkjogDUxGGczVuUuj"},"outputId":"5e40698a-5c4d-4610-e87c-ad56abe7cd23","executionInfo":{"sta
…
